AI-Bot/data.pth (torch, 5279 bytes, 6 tensors)

l1.weight f4 [8, 54]
00000000: 78e9 6f3d 39d5 efbe 1abb 143f 7db2 cf3e
00000010: 8481 3d3f 12ea e3be 3bae cb3e be6b d83e
00000020: 5a57 cd3e 7066 903e 6cd5 053f 9e54 80be
00000030: d21c cf3e bd21 a3be d714 fcbd 4507 15be
00000040: 3acc fa3e e4f1 e3be cd95 033f 3aeb 563f
00000050: 43f2 353e bc3f 343f a433 403f 0078 4f3e
00000060: ad27 b73d 292a f13e 2c88 3d3f 51e3 cdbe
00000070: 2ff8 fc3e 0c80 dcbe 5c70 d4be e53c 9abe
00000080: f6a5 413d f28c 133f 786d 48be f70a 9cbe
00000090: 2f78 233f 1f8e cc3e 6a29 113f 0469 e03e
000000a0: fd93 f6be a3a4 1f3f 2bce 4fbe 0cbf 5e3d
000000b0: f52b 333e 6c16 39be 89cb 19be 0db4 683d
000000c0: da70 f83e d6da 5f3f 1506 21be c610 033f
000000d0: 5b46 043f bc3d e73e 4f26 353f 2f32 cf3e
000000e0: 7787 bcbe 0cd3 b43e 3dcc 0e3e 2bf8 fcbe
000000f0: f864 04be d1d4 d4be 4ffc e6be f378 d5be
00000100: 6c51 e73e a0f8 073f b166 d5bd baf3 e73e
00000110: e926 983e 649f 713e 93c3 a83e d0d4 04bf
00000120: a69d b1bd 39bc fb3e a48f f03e a632 1e3f
00000130: 3da6 dc3e 79cc ba3e a623 fc3d ffe0 943e
00000140: 5333 41be 0d0e d13d e16a 54be 0163 9abd
00000150: f804 00bf 73c4 ee3e 0fc9 db3e 97b2 b7be
00000160: 740e 103e faf5 c13e 0a45 91be 9603 05bf
00000170: 6613 8dbe 52f5 56be 07b3 84be 178f bcbe
00000180: d053 c13e 3402 173e b6b1 873e b763 4c3e
00000190: d16f 713f 6660 053f a79b 573e 6942 b8be
000001a0: f643 a73e 71d9 f8bd 5a0b 4ebd 4b81 113e
000001b0: 081a 95be c0a5 87be 3be7 043f 11ee 683e
000001c0: eb7f 023f f2d8 423f 2984 873e fd97 e53e
000001d0: 8071 fd3e 4f8a f83e 2e26 383e 64d4 08be
000001e0: 483a cc3d d27c aebc 1acb 25be eb57 a73c
000001f0: 3b09 853e 1b8b 343f 0d8a 6dbe 1c2e 873e
00000200: f829 2ebe f273 0a3f 08ac a83e e595 5b3e
00000210: 3352 ecbc 3eb2 613e 3d93 85be 0118 73be
00000220: 3dce 91be e028 6bbe dc39 f13e 5c3c 4dbe
00000230: 5678 173d f87b e43e 97d9 ffbd 677a 60be
00000240: b7f0 95be 2c1a 963e 8d95 fb3e a45a a93e
00000250: 2e04 0c3f df91 ddbe e8d8 b6bc 1635 3dbe
00000260: c9f4 883e e8a8 2dbe 3a1b 28bf f632 34be
00000270: e725 b03d 94fa c9be 8644 2abd 9331 abbe
00000280: 0c08 823e 2f9c b63d 94fa bcbc 98be a4bd
00000290: 608e 5d3d 50c2 aabc 4893 b4bc c0dc 6c3d
000002a0: 0c79 ed3d d6a0 51bd e207 d6bd a893 7d3d
000002b0: 0945 b4bd b11c 3f3d 9f0e 3c3d 752a cabd
000002c0: 202e ffbc 05e8 bd3d 56b3 e83d d098 89bd
000002d0: ee30 b0bd 95eb d3bd 5903 04be 2ac3 39bd
000002e0: 3ce8 fbbc 93eb 00bc 517b 84bd d1df 9dbd
000002f0: d217 e03d 30cd 5c3d 946e 083d a172 dfbd
00000300: 4004 9bbc 4559 b73d 0033 d2bc ccf8 093d
00000310: 36d4 6abd ad5a 79bc 543c d2bd 4c8a cc3d
00000320: db4b fabd 328c ab3d 3a80 7ebd 2280 c1bd
00000330: 8d91 433d a634 ddbd c021 aa3d fd03 dbbd
00000340: 847e 87bc 4543 ffbd 9011 5ebd 3830 b63c
00000350: 8e4f 27bc 061b a3bd 985e 5c3d e411 3dbd
00000360: 7870 e9bd e285 babe 8148 e03e d9dc 833d
00000370: 0c2a 69bb 4341 a93e 1587 e43e 511a 093f
00000380: bdd8 313f 9929 c83e 3c1f bfbb b537 243f
00000390: 46c9 533e 4d28 2e3f ec5d 81be e144 d03e
000003a0: 4d98 c33d 8c0c bc3e c2ec 02bf cdda 06be
000003b0: 4f25 38bc cbe2 61be 1d08 14be 2a33 573e
000003c0: 978e 133f 0b0e d83d f1be 98be 82d7 bfbe
000003d0: 13f2 1ebe b233 d3be debc 723e 4e3a 0b3f
000003e0: e03e 87bb f506 313f c2ff 2dbe c280 d53e
000003f0: 7a9c 903d d90d 343f 1f1f d23e 6b97 133f
0.058572263 -0.46842363 0.58097994 0.40565863 0.7402575 -0.4451452 0.39781365 0.422697
0.40105706 0.28203154 0.5227878 -0.25064558 0.40451676 -0.31861678 -0.123086624 -0.14553554
0.48983938 -0.44520485 0.5140045 0.8395268 0.17768197 0.7040975 0.750788 0.2026062
0.089431144 0.47102478 0.74035907 -0.4021249 0.494081 -0.43066442 -0.41491973 -0.30124584
0.047277413 0.5763694 -0.19573009 -0.30477116 0.6385526 0.3995218 0.5670382 0.4383012
-0.4815978 0.6236059 -0.2029349 0.054381415 0.17497237 -0.1807496 -0.15019049 0.056812335
0.485236 0.8744329 -0.15724976 0.5119747 0.51669854 0.45164287 0.7076158 0.40467975
-0.368221 0.35317266 0.13945098 -0.49408087 -0.12929142 -0.41568616 -0.4511437 -0.4169384
0.45179307 0.53113747 -0.104199775 0.45303136 0.29717186 0.23595959 0.3296171 -0.51887226
-0.08672647 0.4916704 0.4698459 0.61796033 0.4309558 0.36484125 0.12311487 0.29077908
-0.18867235 0.10207758 -0.20743896 -0.07538415 -0.5000758 0.46634254 0.42926833 -0.3587844
0.14068013 0.37882978 -0.28372985 -0.51958597 -0.27553862 -0.2099202 -0.25917837 -0.3682792
0.37759256 0.14746934 0.2650277 0.19959913 0.94311243 0.5210022 0.2105547 -0.35988167
0.32669038 -0.12150849 -0.050303794 0.14209478 -0.29121423 -0.26493645 0.5191533 0.22747065
0.5097644 0.7611228 0.26468018 0.4484252 0.49500656 0.4854302 0.17983314 -0.1336227
0.09972054 -0.021299753 -0.16190758 0.020427665 0.25983605 0.7052476 -0.23197193 0.26402366
-0.17008197 0.5408317 0.3294375 0.21443899 -0.02884779 0.2204065 -0.26088896 -0.23739626
-0.2847766 -0.22964811 0.47114456 -0.20042557 0.036979996 0.4462583 -0.12492674 -0.21921693
-0.29285213 0.29316843 0.49137536 0.33076966 0.5469388 -0.43275353 -0.022320226 -0.18477282
0.26749256 -0.16958964 -0.65666544 -0.17597565 0.08600979 -0.39448988 -0.041569255 -0.3343626
0.25396764 0.089165084 -0.023068704 -0.080441654 0.054090858 -0.020844609 -0.022042885 0.05782771
0.115953535 -0.051178776 -0.10450722 0.061908394 -0.0880223 0.04665822 0.04591238 -0.09871379
-0.031149924 0.0927277 0.113623306 -0.067186 -0.086030826 -0.10347668 -0.12891902 -0.04535214
-0.030750386 -0.007868665 -0.06468833 -0.07708705 0.10942043 0.05390662 0.03330858 -0.109105356
-0.018922925 0.08952574 -0.025659084 0.033684537 -0.057331286 -0.015219373 -0.10265413 0.099873155
-0.122214995 0.083763495 -0.062134005 -0.094482675 0.04774623 -0.108010575 0.083072186 -0.1069412
-0.01653982 -0.124640025 -0.054215968 0.02223979 -0.010211838 -0.07964139 0.05380115 -0.04615964
-0.11398405 -0.3643027 0.43805316 0.06438608 -0.003557804 0.33057603 0.4463431 0.5355578
0.6947134 0.39094236 -0.005832581 0.641475 0.20682248 0.68030244 -0.2526697 0.4067755
0.095505334 0.36728323 -0.51142514 -0.13169403 -0.011239364 -0.22059171 -0.1445622 0.21015611
0.5763945 0.105495535 -0.29833177 -0.37469107 -0.15522031 -0.41250378 0.2370486 0.5438584
-0.0041273683 0.6915124 -0.16992095 0.41699797 0.070610955 0.7033363 0.4103937 0.5765292

l1.bias f4 [8]
00000000: 07ef e33e 446d 303f 4421 233f c8dd 1abe
00000010: df0f 2d3f 0f72 3b3f 8a00 613f 4170 053f
0.445183 0.68916726 0.63722634 -0.15123665 0.6760234 0.73220915 0.8789145 0.5212441

l2.weight f4 [8, 8]
00000000: acd4 703f 275a 4f3f 0b74 1abf b688 493e
00000010: bc59 4ebf 949b fb3d b084 243f 92ec 953f
00000020: ac28 5e3e 911a 223f 9ad4 0ebd 0129 acbe
00000030: db5c 18bf d5e7 08bf 92ab bc3f 533e 3d3f
00000040: 0ecc 03be 18ce a63e 0278 a03f fbc2 a9be
00000050: 3fc4 a33f 1093 7d3f 28bb 353f 1dfe 0abf
00000060: 6902 083f 4a87 b53e 9a06 1e3e 4bc4 313e
00000070: 2ac2 a6bd 02bf 853f 7f65 2fbf ac9a 8c3e
00000080: a77b e0be ed51 973f 8479 89bf af61 98be
00000090: efd6 dd3e 22ce 193f 2139 54bf 7215 f53e
000000a0: cbe6 733f 7c34 be3f a3b2 ffbe cfdc 863e
000000b0: e566 903e 3e8b 42bf f360 223f 0ea1 913f
000000c0: fca4 573f 4571 4dbf db8a 963e ef80 5e3a
000000d0: 9524 b43e c719 0c3f aef5 1d3e 6797 923f
000000e0: 0eae 86be 1459 15be 8399 ab3e 9d70 823e
000000f0: 05a4 afbe 287f 573f ac0d 8f3f e43e 1abf
0.9407451 0.80996937 -0.6033332 0.19681057 -0.80605674 0.122855335 0.64264965 1.171282
0.21695203 0.6332179 -0.03487072 -0.33625033 -0.59516686 -0.5347875 1.4739859 0.73923224
-0.1287081 0.32579112 1.2536623 -0.3315657 1.2794265 0.99052525 0.709887 -0.54293996
0.5312868 0.3545478 0.15432206 0.17360036 -0.081425026 1.0448916 -0.68514246 0.27461755
-0.4384434 1.1821877 -1.0740209 -0.29762027 0.43328044 0.6008016 -0.8289967 0.47867924
0.9527404 1.4859767 -0.49940977 0.2634034 0.28203502 -0.75993717 0.6342918 1.1377275
0.8423612 -0.8025096 0.29402813 0.00084878405 0.3518416 0.54726833 0.1542575 1.1452454
-0.26304668 -0.14584762 0.33515558 0.25476542 -0.34304824 0.841784 1.1176047 -0.60252213

l2.bias f4 [8]
00000000: b93a c93e 8b96 1f3f ef81 173f 1eaf a53e
00000010: d452 003f 0b40 943e 115b 213e 8ab3 273f
0.39302614 0.62339085 0.5918264 0.32360166 0.50126386 0.2895511 0.15757395 0.6550833

l3.weight f4 [7, 8]
00000000: 18aa 80bf ec62 5abf 25b0 143f de03 cbbe
00000010: bdc4 073f b20e be3e ff04 7bbf 734c 7ebf
00000020: 4f7d 903d df7e a3bf 6edd 88be b32a 1c3f
00000030: 9d76 1c3f 468a 47bf e0c4 85be 1439 163f
00000040: bb0e a1bf f387 e63c a98c 273f 50c9 cbbe
00000050: 6356 9abf 137a 4dbf 9f97 79bd 2f69 5a3f
00000060: 0730 353e ddca 9c3e e54d 00be aeae cb3d
00000070: 3292 afbf ec9d e73e 46a1 52be e842 563e
00000080: a876 2e3f d17a ab3e af1f 04c0 d3c0 5fbe
00000090: b3dc 66bf 3441 e13e f0fb b23e 510c a8be
000000a0: da22 bcbe 2ac8 9cbf ab15 f03d 7f77 213f
000000b0: 1631 62bf b389 f23c 49b4 423f 3272 6ebf
000000c0: 2915 cb3e e90a 2fbd 6585 98bf dd46 9a3e
000000d0: c05b 853f 5864 bd3e 50fc 30bd a377 a0bf
-1.0051908 -0.8530719 0.58081275 -0.39651388 0.53034574 0.37120587 -0.980545 -0.993354
0.07055151 -1.2773093 -0.26731437 0.61002654 0.6111849 -0.77945364 -0.26126766 0.58680844
-1.258262 0.028140998 0.65449005 -0.39802027 -1.2057613 -0.80264395 -0.060935613 0.8531675
0.17694102 0.30623522 -0.12529714 0.09945427 -1.371649 0.45237672 -0.20569333 0.2092396
0.68149805 0.3349214 -2.0644338 -0.218509 -0.9018051 0.4399506 0.34957838 -0.32821897
-0.3674534 -1.2248585 0.11722883 0.6307296 -0.8835615 0.029606676 0.76056343 -0.93143
0.3966458 -0.042735014 -1.1915709 0.3013219 1.0418625 0.3699062 -0.043209374 -1.253651

l3.bias f4 [7]
00000000: da8e 4e3e 1c7f 043d 68d4 b23e 30dd 433e
00000010: f225 09bf c595 d7bc 31c7 37be
0.20171681 0.032347783 0.34927678 0.19127345 -0.53573525 -0.026316533 -0.17947079
